models/ftb_baseline_v1.pth (torch, 151759 bytes, 11 tensors)

state_encoder.encoder.0.weight f4 [64, 15]
000000 46 b9 21 be c8 4c 34 3d 7e b4 32 be bc 2e bc bd
       -0.15793332 0.044018537 -0.17451665 -0.091886014
000010 7a 97 09 be 70 51 7f 3d 3c f7 23 be 40 a0 92 3b
       -0.1343669 0.062333524 -0.16012281 0.0044746697
000020 70 af 11 bc 38 be 10 be 2c 68 91 3d f0 45 f7 3c
       -0.008891925 -0.14135063 0.07099947 0.030184716
000030 e4 3d 39 3e 80 ec 3a bc 7c 66 19 3e f8 a0 71 3d
       0.18090016 -0.011408925 0.14980501 0.058991402
000040 c7 04 d7 3d 27 ad 2a 3d 5c 22 af bd 5e fa 2e be
       0.10498958 0.041669037 -0.085514754 -0.17087695
000050 00 58 db bb 60 12 3f be 23 fa 15 3e b6 aa 36 be
       -0.00669384 -0.18659353 0.14646201 -0.17838559
000060 92 93 ec ba e0 8a 6d 3d 00 63 bc bb 60 49 10 be
       -0.001804935 0.05799377 -0.0057491064 -0.1409049
000070 16 07 7e 3e e8 08 3e 3e a3 e2 60 be 14 d2 a5 bd
       0.2480739 0.18558085 -0.21961455 -0.0809671
000080 90 e1 bb 3c 0a a2 3f be 23 55 56 be 97 f6 39 be
       0.022934705 -0.18714157 -0.20930915 -0.18160473
000090 f0 41 37 be 42 6d 42 be 1a d7 10 be 9c 75 12 be
       -0.17896247 -0.18986991 -0.14144555 -0.14302677
0000a0 2a ef e1 bd 20 0c 30 3d 48 aa 16 3e e8 2d 5f 3e
       -0.11031945 0.042980313 0.14713395 0.21794856
0000b0 24 23 44 3e 98 3b 70 3e d2 5e 13 3e 95 e9 2f 3c
       0.1915403 0.23460233 0.1439164 0.010736843
0000c0 f6 2e 1a 3c 2a 68 3f be 38 da a8 3d 22 89 f5 bd
       0.00941061 -0.18692079 0.08244747 -0.11989047
0000d0 a1 dc 4c 3e 24 1d 98 3e 30 0f 48 be 40 32 9a 3c
       0.20006038 0.29709733 -0.19537044 0.01882279
0000e0 64 31 33 3e cc 14 49 bd fa 33 6a 3e 0c e1 38 3e
       0.1749931 -0.0490921 0.2287139 0.18054599
0000f0 5d 26 a1 bd 6f f2 65 3e 56 84 0c bd 16 29 0d 3e
       -0.07868645 0.22455762 -0.034305893 0.13785204
000100 72 06 09 3e da 17 82 be 69 38 49 be 96 3d d9 3d
       0.13381365 -0.25408822 -0.19650425 0.1060745
000110 7c 29 7d 3e 78 37 0a be 40 18 19 3d 78 00 be bc
       0.24722856 -0.13497722 0.037376642 -0.023193583
000120 4e bc 50 3e 78 4a c2 bc 92 13 9c bd 14 c1 1f 3d
       0.20384333 -0.02371715 -0.0762092 0.039002493
000130 82 bb 6d 3e b1 63 8e 3d b9 58 8b be aa 2c 2a 3e
       0.2321606 0.069526084 -0.27216128 0.166186
000140 8e 97 4e be 23 90 0b be 90 91 a4 3d 1b 4b da 3d
       -0.20175001 -0.13629203 0.08035576 0.106588565
000150 a4 86 ce 3d 0f a4 1f be d4 71 99 bd e0 29 15 3e
       0.100842744 -0.15589927 -0.07492414 0.14566755
000160 6c 97 55 3e 40 fb 10 bd 0e 74 c3 bd e0 fd a7 bc
       0.20858544 -0.03539586 -0.0954362 -0.0205068
000170 00 8c 90 3d 64 63 b9 3d 84 89 20 bd 04 43 83 be
       0.07057953 0.090521604 -0.039193645 -0.25637066
000180 da de 15 be 47 6b 19 be c4 f4 39 3e c0 64 1e 3c
       -0.14635792 -0.1498233 0.18159777 0.009667575
000190 4a 1e ef bd 14 f0 29 3e ae 03 b1 bd 00 b5 aa 3c
       -0.11675699 0.16595489 -0.0864328 0.02083826
0001a0 06 d6 5f be 46 78 77 3e 72 39 87 bd b6 ba 8b be
       -0.21858987 0.24166974 -0.06602754 -0.27290887
0001b0 5b 9d 8c be dc 6d a5 bd 2e 79 5d 3e 20 eb 92 3d
       -0.27463803 -0.08077595 0.21628258 0.07173753
0001c0 58 49 fc 3d 50 be 67 3e f9 07 34 3d 8c 14 45 bd
       0.12318677 0.22631192 0.043952916 -0.0481153
0001d0 be ee 82 be 67 b8 2d be 98 92 9d 3d 82 3d 6e be
       -0.2557277 -0.16964875 0.07693976 -0.23265651
0001e0 d8 8a a5 bc a0 f6 5a be 18 33 58 be 6d c2 54 be
       -0.020207807 -0.21383142 -0.2111324 -0.20777293
0001f0 f1 ca 4b be 12 af 33 be 80 20 12 bb 90 7d b0 bd
       -0.19901635 -0.17547253 -0.0022297204 -0.08617699
000200 0c fc 5a 3e 46 c9 d6 bd 02 0a 6c 3e 20 34 b1 3c
       0.21385211 -0.104876086 0.23050693 0.0216313
000210 e0 56 98 bd 10 14 2b 3d 10 20 5b bc c4 7f 81 be
       -0.07438445 0.04176718 -0.0133743435 -0.2529279
000220 e2 bc 14 be 87 64 22 3e 4e 30 ae bd 20 5f 06 3d
       -0.14525178 0.1585866 -0.08505307 0.032805562
000230 c6 22 6c be 00 0d 89 3d c8 76 89 bd 58 fa e8 3c
       -0.2306014 0.06691933 -0.06712109 0.028439686
000240 ef 16 75 be be 2e 5f 3e 70 dd 0a bd e4 2a 72 3e
       -0.2393453 0.21795174 -0.033902586 0.23649174
000250 1e e7 1b 3e 20 7d fa bc 4c 92 54 3d 79 fd d6 bd
       0.15224883 -0.030577242 0.051897332 -0.10497565
000260 0e 4c 44 3e 6d 7d a9 bd 5f c9 16 be 68 cf da bd
       0.19169638 -0.08275876 -0.14725254 -0.10684091
000270 83 57 60 3c 63 a2 8e 3e 73 ee 85 3e ae c7 a8 3d
       0.013692739 0.27858266 0.26158485 0.08241211
000280 15 c2 70 be dc e2 8b 3d e8 d2 c0 bc f0 9a 5f 3d
       -0.23511536 0.06830379 -0.023538068 0.05459112
000290 f6 84 11 be e9 1f 67 3e 98 8d 71 bd 3d 6f 8c be
       -0.14210877 0.22570767 -0.058972925 -0.27428618
0002a0 ed 91 6f be 50 d2 68 bd 3c cd 47 be 48 70 e4 bd
       -0.2339551 -0.056841195 -0.19511884 -0.111542284
0002b0 72 d3 2d 3e ba 3a 8e 3e f7 b1 34 3e 26 e8 75 be
       0.16975191 0.2777918 0.17646013 -0.24014339
0002c0 9c b9 38 bd e4 79 1d be 44 4e a5 3d b4 ee 1a 3e
       -0.045098886 -0.15378529 0.080715686 0.1513012
0002d0 72 5e 13 3e 4a 00 15 be 03 0d 99 be 89 12 22 3e
       0.14391497 -0.14550892 -0.2989274 0.15827383
0002e0 66 aa 6b be 89 74 6a be c9 d2 10 be fc 53 58 3e
       -0.2301422 -0.22896017 -0.14142908 0.21125787
0002f0 b0 c8 1f be fd da 22 be 26 05 3a be a0 6f 03 3e
       -0.156039 -0.1590385 -0.18166026 0.1283555
000300 04 c5 be 3d 5c b9 1b bd 00 24 e0 3b 6b 90 93 3d
       0.093149215 -0.03801857 0.006840229 0.0720528
000310 76 db cd 3a ff b0 58 be b5 91 97 bd f4 6d 96 3d
       0.0015705663 -0.21161269 -0.07400838 0.07345191
000320 b8 a5 8d bc 4d 33 c8 bb b8 73 85 3e fc 6f 0b 3e
       -0.017290935 -0.006109631 0.2606485 0.13616937
000330 91 28 7a 3e ca 23 59 3e da 28 f5 bd 82 26 3f 3e
       0.24429537 0.21205059 -0.119706824 0.18667033
000340 a8 a1 41 3e 80 a5 1f bb ac 23 f3 3d 14 38 e7 bd
       0.18909323 -0.002436012 0.11872038 -0.11289993
000350 b3 4e 7d be c2 9a 7b 3e 30 59 44 bd 94 7e dc 3d
       -0.24737053 0.24570754 -0.04793662 0.1076633
000360 a0 6c 73 bd 97 2d 07 be 5a ed 77 3e de 2f 3d be
       -0.059429765 -0.13200985 0.24211636 -0.18475291
000370 ea c7 80 be 6c f8 18 3e 6a 01 67 be 9a c7 5e be
       -0.25152522 0.14938515 -0.22559133 -0.2175583
000380 b6 44 62 3e 21 6c fd 3c d4 0d 92 bd 1f 89 40 3e
       0.22096524 0.030935349 -0.07131544 0.18802308
000390 4a 12 ed bc ae d8 b2 bd b6 64 47 3e 87 83 28 3e
       -0.028939385 -0.087327346 0.19472012 0.16456424
0003a0 21 d8 51 3e 0e c7 38 3e eb 49 04 3e 36 83 34 be
       0.20492603 0.18044683 0.12918822 -0.17628178
0003b0 00 38 d9 ba 3a b0 4e 3e c4 41 f7 bd 98 6f 44 3d
       -0.0016572475 0.20184413 -0.12073091 0.047957987
0003c0 02 62 6b 3e d2 da 8b 3d 0e df 37 3e c2 a9 9c be
       0.22986606 0.06828846 0.17956182 -0.30598265
0003d0 c0 b0 ea bb d8 2f 2f 3d 77 a7 ee bb 3b 13 61 3d
       -0.0071621835 0.042770237 -0.007283147 0.05494998
0003e0 f5 03 7a 3d 81 4d 16 be 78 0b 2e 3d 14 c3 ed bd
       0.06103893 -0.14678003 0.042491406 -0.11609474
0003f0 5a 37 92 bd 58 33 56 3d 00 a5 e2 bb db 17 20 be
       -0.07139464 0.05229506 -0.006916642 -0.156341

state_encoder.encoder.0.bias f4 [64]
000000 e0 5c 1b 3c 74 c1 5f 3d be cd 4f be 8b 1e 5d 3e
       0.009482592 0.05462785 -0.20293328 0.21593682
000010 47 43 5b 3e 8c 37 8c 3d 68 d1 e8 3d 96 1a 14 3e
       0.21412383 0.06846532 0.11368066 0.14463267
000020 92 b0 42 3e a3 27 c6 3d fa f9 20 b9 af 3b a2 bd
       0.19012669 0.09675529 -0.00015351913 -0.0792154
000030 63 20 ee bd c0 ec 81 3c 2c 7d 8d 3d ce 03 29 be
       -0.11627271 0.015859962 0.0690864 -0.16505358
000040 6c 1b 8e bc 59 38 7d 3e 66 8c a3 bd 2e de ce 3b
       -0.01734706 0.24728526 -0.07985763 0.006313107
000050 34 fd 81 be b8 ab ad bd e1 0d 57 3e 9a d4 7a 3e
       -0.2538849 -0.084800184 0.21001388 0.24495164
000060 5c 00 47 be 7c 9e c7 bd 42 ee 47 3d eb 8a bc 3d
       -0.19433731 -0.09747025 0.048811205 0.09206184
000070 33 0a 2a 3d 85 30 65 3e 45 ae 2d 3e d8 a9 30 3d
       0.041513633 0.2238179 0.1696101 0.043130726
000080 ec 9f e3 3d 48 5b 03 3d 9d 6a 22 3e 44 34 86 3e
       0.11114487 0.032069474 0.15860982 0.2621175
000090 7b 5b 47 3e a2 13 34 3d d2 69 98 3e 8a 09 85 3e
       0.19468491 0.043964036 0.29768234 0.2598384
0000a0 ea 44 02 bd a8 3e f4 3d 12 b6 35 be 68 e0 90 3e
       -0.031804003 0.11926013 -0.17745236 0.28296208
0000b0 d5 2c b1 bd 7e f9 cb bd b0 b7 f6 3d 6f a8 40 3e
       -0.08651129 -0.09959696 0.12046754 0.18814252
0000c0 98 ff 09 3d f2 23 a3 bd 7e 90 30 be c0 82 7a 3b
       0.03369102 -0.079658404 -0.1724262 0.0038224906
0000d0 cc e9 86 3e 45 3c 57 be 58 69 2c 3d f7 e4 f4 bd
       0.26350248 -0.21019085 0.04209265 -0.11957734
0000e0 22 77 72 be b1 0a 72 be 7f 03 10 3e e0 4d e4 3d
       -0.23678258 -0.23636891 0.14063834 0.11147666
0000f0 a6 8d 33 3e 57 e5 76 be a0 81 1b be 76 a6 6c bd
       0.17534503 -0.24110924 -0.15186167 -0.057775937

state_encoder.encoder.3.weight f4 [128, 64]
000000 16 2d 99 bd 3c fc 00 3d 72 f8 d5 3d 96 ea 8a 3d
       -0.074793026 0.03149055 0.10447778 0.06783025
000010 01 2f f9 3d 0f 96 ec 3d c4 d3 cc 3d 66 59 a8 bc
       0.121671684 0.11552059 0.100013286 -0.020550441
000020 68 c0 48 3d c0 0b 04 3c 46 b1 64 bd 3e 3d 05 3e
       0.049011618 0.008059442 -0.055833124 0.13011643
000030 2e 90 3b 3e f1 69 79 bd f4 02 48 3d 36 ed 17 3d
       0.18316719 -0.06089205 0.04883094 0.037091456
000040 a3 f6 d3 ba dd 35 82 3d c0 68 aa 3b 42 a2 3e bd
       -0.0016171526 0.0635793 0.0052004755 -0.04654146
000050 d4 de 34 bd c1 b4 f8 3c a8 e5 78 bc e0 a8 d8 3d
       -0.044157818 0.030359628 -0.015191473 0.10579085
000060 84 62 34 3d dc f7 cc bd 7b a3 09 3d fa ae 45 bd
       0.044039264 -0.10008213 0.033603173 -0.048262574
000070 08 81 2d 3c cf cd 17 3c 2c d5 18 3e 10 4c db bc
       0.0105898455 0.009265377 0.14925069 -0.026769668
000080 80 d8 bf 3a dc c6 aa bd f4 e8 66 3d 9f c1 2d bc
       0.0014636666 -0.08338711 0.056374505 -0.010605245
000090 2c c7 cc 3c e1 6d 01 bc 52 8b 0f 3d ea 0b 93 bd
       0.024997316 -0.007899732 0.035044976 -0.07180007
0000a0 1e 35 50 bd 44 7b 63 3d cc a1 03 3d d5 c2 15 3e
       -0.050831906 0.055537477 0.032136723 0.14625104
0000b0 f2 56 e8 3d d8 ce 0b 3d 1c 2f 69 3d 5a 80 3a 3d
       0.113447085 0.03413281 0.056929693 0.04553256
0000c0 78 be 95 3d 66 22 b1 3c a0 7b 52 bc 1e de ba bd
       0.0731172 0.021622848 -0.012846857 -0.09124397
0000d0 0f 4e 02 3e cd 83 a6 3c 80 59 63 3b 07 76 ae bd
       0.1272509 0.02032652 0.0034690797 -0.08518606
0000e0 00 43 22 3c e4 b5 0c 3d 17 5a 01 3e 53 f9 81 bd
       0.009903669 0.034353152 0.12632023 -0.06346383
0000f0 2d 2e 27 bc 2d e3 b7 3d 96 1e 6f 3b 4a 05 6a 3d
       -0.01020388 0.08978877 0.0036486736 0.05713395
000100 4e 47 b7 bd 2a f9 90 3d e0 fc 9f 3d d9 fb 9b bc
       -0.08949147 0.07078774 0.07811904 -0.019040989
000110 9b 96 da 3d e9 58 1c 3b a0 a8 54 3d dc 7e 5c 3d
       0.10673257 0.0023856706 0.051918626 0.05383192
000120 7c 70 38 3d b8 71 f2 bc 26 b7 4d 3d ca fa ab bd
       0.04502915 -0.029595241 0.050223492 -0.083974436
000130 f3 9f 07 bd de ad b9 3c 48 91 e8 bd 35 22 bf bc
       -0.033111524 0.022665914 -0.11355835 -0.02333174
000140 af 88 54 3d 7b a1 dd 3b 04 68 a3 3d 6b 5e 91 bd
       0.051888164 0.0067636347 0.07978824 -0.07098087
000150 6c 75 a1 3d 51 d5 c5 3b ea fa d9 bd 29 cf c2 bc
       0.078837246 0.006037392 -0.10643561 -0.023780422
000160 78 27 90 bc a0 28 fe bd 7a b5 75 bd 07 ed bf bd
       -0.017596945 -0.12410092 -0.059987523 -0.09371381
000170 7d 19 00 3e 9b 69 0c bd 5a 07 11 3d 30 39 84 3d
       0.12509723 -0.0342804 0.0354074 0.0645622
000180 90 86 ca bd 98 4b ee 3d d6 0c 81 3d 65 13 29 3d
       -0.09888947 0.11635512 0.063012764 0.04127826
000190 87 61 10 3d f9 6b 99 bd fc 4d 01 3e 84 4d f5 3c
       0.03524926 -0.07491297 0.12627405 0.029944189
0001a0 6d 6a ad 3d ea 2a 0f bd ae dd d4 3d 70 0b 97 3c
       0.08467565 -0.034953035 0.103938445 0.018438071
0001b0 c9 31 ea 3d 82 8e d0 3d a4 ac 55 bd dd d8 e5 3d
       0.11435277 0.10183431 -0.052166596 0.11223004
0001c0 a4 c0 d8 3d 0f 08 6b bd 04 28 f9 3d cc 0e d2 bb
       0.10583618 -0.057380732 0.121658355 -0.0064104553
0001d0 63 02 e2 bd dd e0 c4 bd 40 33 8b 3d f9 6e 81 3d
       -0.110356115 -0.09613202 0.067968845 0.063199945
0001e0 50 b2 13 3c 30 bf a3 3d d9 19 4f 3b 02 66 6f bb
       0.009014681 0.079954505 0.00316011 -0.0036529307
0001f0 37 c1 89 3d f5 a1 e8 bc 4f c4 6d 3d a6 f0 a4 bd
       0.06726306 -0.02839754 0.058048543 -0.080537125
000200 72 69 bc 3d 2d c8 b7 bc 4e 8a a0 3d 27 bc 31 bd
       0.091997996 -0.022434318 0.078388795 -0.043392327
000210 29 bb 2f bd 2c de b3 3d f4 56 e5 3d 09 7d 1f 3e
       -0.0429031 0.0878261 0.111982256 0.15575041
000220 fc f3 c0 3d 00 35 0e ba b6 0e 6d bd b1 6a 9c 3d
       0.09421536 -0.0005424768 -0.057875358 0.07637537
000230 6c c4 b3 3c 2d 4f 24 3e 00 29 89 bd 64 03 50 bd
       0.021944247 0.16045828 -0.06697273 -0.050784484
000240 8d 24 d5 3d 29 d4 bb 3d 9a f2 de 3d 98 2a 65 be
       0.10407362 0.09171326 0.10886116 -0.2237953
000250 48 57 7c 3d e5 be b4 bd 0b 53 10 3d 59 49 e7 3c
       0.061606675 -0.08825473 0.035235446 0.028233217
000260 f0 07 26 bd d4 b7 06 bd 27 b3 1b 3d 9e 92 c0 3d
       -0.040534914 -0.032890156 0.03801265 0.09402965
000270 c0 48 90 3d c6 37 2d 3e bc f6 01 3e 90 80 1b bd
       0.07045126 0.16915807 0.12691778 -0.037964404
000280 7c 73 84 bd 66 d8 f1 bd d8 7b f9 3d 80 39 ae bc
       -0.064673394 -0.11808853 0.121818244 -0.021267653
000290 9f 20 1b bd 7a 23 fe 3c ef dd 0b bd cc 3d 71 3d
       -0.037872907 0.031022776 -0.0341472 0.058896825
0002a0 32 8a 83 bd 25 40 c8 bc e8 34 ee 3d ab 8a 0d 3e
       -0.06422843 -0.024444649 0.11631185 0.13822429
0002b0 04 23 aa bd a7 bf ca 3d aa df aa bd 3c ba c3 3d
       -0.0830746 0.09899836 -0.08343442 0.09557006
0002c0 58 b5 b9 3d 79 4e 18 3e 58 c3 a9 bc 4b b9 d1 bd
       0.09067792 0.14873685 -0.02072303 -0.1024042
0002d0 6b 44 c3 3c 93 73 98 3d d4 4b 13 3d e7 6a ee 3d
       0.023836335 0.07443919 0.035960987 0.11641484
0002e0 54 bd 71 3d a0 fb cd 3d 5c f7 b3 bd 71 62 be 3d
       0.059018448 0.10057759 -0.087874144 0.0929612
0002f0 25 8a b0 3d 85 c9 50 bc 76 6d 96 3d 7e e6 c4 bd
       0.08620099 -0.0127433585 0.07345097 -0.096142754
000300 c2 14 a7 3d 7e 6e be bd 08 10 46 bd 7a f8 5c 3c
       0.08158256 -0.092984185 -0.048355132 0.013486976
000310 9f 75 84 3b d7 76 a1 3d 34 12 27 3d 50 fc 41 bc
       0.004042342 0.07883995 0.040788844 -0.011839941
000320 e4 2f 0b bd 2e 03 ec 3d 0a 68 24 3e d9 d4 65 3d
       -0.03398122 0.11524044 0.16055313 0.05611119
000330 fd ac 14 3e 01 e5 5e 3d 46 e6 8d 3d 67 dd 55 3d
       0.14519115 0.054417614 0.06928687 0.0522131
000340 f0 e9 23 3c bd d3 e6 3d b8 c5 27 3d bd a7 11 be
       0.0100045055 0.112708546 0.040960044 -0.14224143
000350 70 3a b9 bc e7 24 e9 3d e2 98 e3 3d 95 01 f6 bc
       -0.022610873 0.11383992 0.111131445 -0.030030051
000360 c0 57 83 bd 8a 79 ef 3d 97 c0 fa 3d 08 d7 c7 bb
       -0.06413221 0.116931036 0.12243765 -0.006098632
000370 c0 18 5b bd 45 12 67 3c 89 4c 3e 3e 08 ba d7 3d
       -0.0534904 0.014103477 0.18583883 0.105335295
000380 44 29 34 3d e0 80 f4 3d 7f 62 06 3e f9 b2 0d 3e
       0.043984666 0.119386435 0.13123511 0.13837804
000390 25 9d e3 3d b5 c3 6d bd f5 ee e6 3d 58 01 b4 3d
       0.11113957 -0.05804797 0.11276046 0.08789319
0003a0 2b 33 92 3c bc 20 63 bd 64 36 af 3d 84 3d db 3d
       0.017846664 -0.05545114 0.08555296 0.107050925
0003b0 aa d8 7c 3d 59 4e a5 bc 8a e5 9b 3d e7 85 fd 3d
       0.061730064 -0.02017896 0.076121405 0.123790555
0003c0 70 51 2a bc cf 77 ad 3c d6 ee a3 3d 12 5e 0f be
       -0.010395393 0.021175293 0.08004539 -0.14000729
0003d0 41 33 cf 3d f0 da ba bd de a8 c3 3d f1 bb 07 3e
       0.10117198 -0.0912379 0.09553693 0.13255288
0003e0 f4 82 2a 3d 58 03 ba 3c 03 33 0b bd a6 31 b3 3d
       0.041628793 0.022706673 -0.033984195 0.08749704
0003f0 50 f6 8f 3c a3 4d 90 bd e0 d4 f4 3c 1a a9 e8 3d
       0.017573506 -0.07046058 0.029886663 0.113603786

state_encoder.encoder.3.bias f4 [128]
000000 9a 8a 8b bd 42 c5 5c bd a0 db dc 3d 46 fb a1 3d
       -0.068135455 -0.053899057 0.10784078 0.07909255
000010 ff a2 e5 3c 10 bb 1c 3e 80 08 6c 3d ce 86 f6 bd
       0.028031824 0.15305734 0.057625294 -0.12037431
000020 9d aa 7d bc d2 ab 25 3e 6c 15 0d 3e 1f 88 82 bd
       -0.015482572 0.16178825 0.13777703 -0.06373619
000030 57 c9 81 3d 15 54 a7 3c 18 21 0f 3d 5e cf 06 3e
       0.06337231 0.020425836 0.03494367 0.13165042
000040 1d 75 9d 3d b1 8d 80 bd 65 34 18 3e 76 24 d1 3d
       0.07688353 -0.062770255 0.14863737 0.102120325
000050 7a a3 3a bd 0d c4 65 bd 6a 14 03 3d 6c 9d 3e 3e
       -0.04556606 -0.05609517 0.03200189 0.18614739
000060 16 3f 23 3e f2 7c 13 3e 18 07 1e bc e8 f0 30 3e
       0.15942034 0.14403132 -0.009645246 0.17279398
000070 98 6e 35 3d ae ce 19 3d af 78 9d 3c 2f 1d 2e 3e
       0.044294924 0.03755062 0.019222585 0.1700332
000080 c2 35 25 3d 2f ab d6 3d ea 86 0f bd f6 b5 49 bd
       0.04033447 0.104818694 -0.035040773 -0.049245797
000090 5a f0 21 3e 2d 91 f1 3d 53 48 13 3e 19 9e eb 3d
       0.15814343 0.11795268 0.14383058 0.11504764
0000a0 ac b1 0e bd a1 a2 6b 3d 40 25 88 bd fd 14 1a 3e
       -0.03483741 0.057528142 -0.0664773 0.15047069
0000b0 cf 58 a6 3c 4a 79 0d 3e a9 62 0b 3e 10 13 04 3e
       0.02030602 0.138158 0.13611855 0.12897897
0000c0 98 c4 04 3e 8f 30 8d 3d ae 69 a7 3d 39 1e 27 3e
       0.1296562 0.068940274 0.08174454 0.16320123
0000d0 43 d6 3c 3e 8f 9e 1e 3e 1d 82 b1 3d d3 86 af bc
       0.1844111 0.15490173 0.08667395 -0.021426594
0000e0 4c c8 cd 3d 69 18 cb bd 8c eb 94 bd 0f cb a1 bd
       0.10047969 -0.09916765 -0.072714895 -0.079000585
0000f0 db 5b 7b bc b6 1c fe 3d be ca 38 3c 8b 0f 1a 3e
       -0.015341724 0.1240782 0.011278806 0.15044992
000100 86 98 3e 3c c1 a0 f8 3d f2 11 23 3e c9 a2 8d 3d
       0.011633044 0.121400364 0.15924814 0.069158144
000110 31 f8 27 3e bf 5c a0 3d f0 2f d2 bd f6 e0 bf 3d
       0.16403271 0.0783019 -0.102630496 0.0936908
000120 da 02 76 3d 34 42 22 bd ab 3c 77 38 de 64 90 bd
       0.060061313 -0.039613917 5.894589e-05 -0.07050489
000130 18 19 25 3e ff b6 84 bc 84 2a d7 3b 09 ad fe 3d
       0.16122854 -0.01620054 0.0065663476 0.124353476
000140 1b 15 bf 3b a0 e2 20 3e 22 d4 c0 3d ea bf 5d 3d
       0.0058313734 0.1571145 0.09415461 0.0541381
000150 66 a4 eb 3d f9 ea 00 3e 66 3c b6 bb 76 fb b7 3d
       0.11505966 0.12589635 -0.0055613993 0.08983509
000160 cd ab 91 3d 07 92 be bc 6d a4 8b 3d d3 73 2a bc
       0.071128465 -0.02326299 0.06818471 -0.010403591
000170 36 7d 00 3e 88 6b d8 3d e7 34 94 bc 44 f8 3f bd
       0.12547764 0.10567385 -0.018091632 -0.046867624
000180 82 71 ad 3d 46 10 d1 3d 27 5d e7 3d 71 2a b0 3d
       0.084689155 0.10208182 0.11297064 0.08601845
000190 a1 71 9e 3d 90 0b c5 3d 6c c5 32 bc 9b 63 1b 3d
       0.07736517 0.09621346 -0.010911327 0.037936788
0001a0 5e 9e 7e bd d8 ef 46 bd 5a 14 06 3e 7d 28 08 3e
       -0.06216275 -0.048568577 0.13093701 0.13296695
0001b0 da 14 0f 3d 0f c0 c7 3d 41 8f 81 bb 41 e1 2f bd
       0.034931995 0.09753429 -0.003953845 -0.04293943
0001c0 7c 31 26 3c c2 3c f2 3d 81 60 d4 bc b1 0e 60 3d
       0.010143634 0.11827995 -0.025924923 0.05470151
0001d0 6f 27 84 3d e4 51 89 bd 63 27 35 3e 36 a0 0b bd
       0.06452834 -0.067050725 0.17690806 -0.034088336
0001e0 1f 74 af 3d ff 1c 37 3e c5 33 b2 3d bd 1f 74 3d
       0.0856707 0.17882155 0.087012805 0.05960058
0001f0 39 56 88 3d 0c 7a c3 3d d1 b4 5d 3c 50 84 a9 bc
       0.06657071 0.09544763 0.0135318795 -0.020692974

state_encoder.encoder.6.weight f4 [128, 128]
000000 e6 ac d9 3d 64 01 a4 3d da 21 71 3d 72 f6 28 bd
       0.10628681 0.08008078 0.058870174 -0.041250654
000010 72 80 ab 3d 67 1c 83 3d 0e c0 9d bb 63 30 b8 3d
       0.083741084 0.06401902 -0.0048141545 0.08993604
000020 47 c6 7c bc 40 df c7 3d ee f1 29 bd 20 11 c7 3a
       -0.015428132 0.097593784 -0.041490488 0.0015187599
000030 98 5f f9 3c 1e e0 54 3d 68 3c e7 ba 87 df 94 bb
       0.03044109 0.051971547 -0.0017641904 -0.004543248
000040 a7 4f 66 3c 63 b8 04 3c 48 47 05 3e cf c7 ee 3d
       0.014057077 0.008100602 0.13015473 0.11659204
000050 c7 bf bd bc f7 3a 35 bc 92 f8 d4 3c 1e c4 30 3d
       -0.023162736 -0.011061422 0.025997434 0.043155782
000060 67 d1 7d 3c c6 99 d0 3d c8 00 d6 3d c3 cb 00 3e
       0.01549182 0.1018558 0.10449368 0.12577729
000070 18 dd 52 3d e9 34 06 3b f3 b0 b6 3d a0 d4 bd bc
       0.051480383 0.0020478314 0.08920469 -0.023172677
000080 59 47 89 bd 7f 31 23 3b db 95 1e 3e 99 15 50 bd
       -0.067030616 0.0024901328 0.15486853 -0.050801847
000090 a1 72 a6 3c 07 a1 9b 3d 00 b0 85 3c 72 94 e0 3d
       0.020318331 0.07599073 0.016319275 0.10965814
0000a0 b4 09 0a 3e 25 ef 93 bb bb e1 89 bd 5b 22 f3 3b
       0.13480264 -0.0045145922 -0.06732508 0.007419867
0000b0 95 47 ab bc 26 36 08 3d d9 85 83 3d 3a 69 11 bd
       -0.020908156 0.033254765 0.06422014 -0.035500742
0000c0 95 3b 08 3e 7e 7b 41 3d 9a 7a d1 3d be 99 df bb
       0.13303979 0.047236912 0.102284625 -0.0068237474
0000d0 42 78 f1 bc 66 ab bc 3c bc da e8 3d 2a e0 ae 3c
       -0.029476289 0.023030948 0.11369845 0.021347124
0000e0 50 05 9c 3d dd 67 6c bd b1 2c 32 3d 00 fe 99 3d
       0.07618201 -0.05771624 0.043499652 0.0751915
0000f0 91 1f 20 bd 10 09 db bb d2 5b 5a 3b e3 16 00 3c
       -0.039092604 -0.00668443 0.003331889 0.007817957
000100 92 cc 27 3c 85 e9 8c 3d 57 ce e2 bc 3e 8e 09 bd
       0.010241644 0.06880478 -0.027686281 -0.03358292
000110 9b ee 61 3d 96 bb a8 bc d3 78 8d 3c a7 6e fe 3c
       0.055159193 -0.02059726 0.017269528 0.031058623
000120 00 18 84 3d 21 8c 87 3d 25 87 4f bd 31 a6 61 3d
       0.0644989 0.06618524 -0.050665993 0.055090133
000130 1d 12 60 3d d5 75 c0 3d 2d 01 2c bc 7b d5 23 3c
       0.054704774 0.09397475 -0.010498327 0.009999628
000140 3b f0 e0 3b 0d 80 f0 3c e9 bf c1 3c 88 26 98 3a
       0.006864575 0.029357934 0.02365108 0.0011608163
000150 50 00 4b bd 38 db 23 bd da ab 0c 3d 39 4b ec 3c
       -0.049560845 -0.040003985 0.034343578 0.028844463
000160 f1 e6 24 bd a3 b2 92 3d ce 38 77 3b 4b 41 e3 bc
       -0.040259305 0.071629785 0.0037723067 -0.027741095
000170 9b 2b bf 3d 90 44 9a bc f6 90 59 3d 7c fe a6 3d
       0.09334489 -0.018831521 0.05311676 0.08154008
000180 59 48 9b 3d b0 69 38 bd 48 0b 23 bd ea 32 b2 3d
       0.075821586 -0.045022666 -0.03980568 0.08701117
000190 21 f1 69 3d 4b ff ce 3d 39 d0 0d 3d ec e9 07 3e
       0.057114724 0.10107287 0.034622405 0.13272828
0001a0 fa ac 5b bc 21 20 24 3d cd 1c d2 3d 3d 4a 02 3e
       -0.01340794 0.040069703 0.102593996 0.12723632
0001b0 ef da 95 3d 89 b6 a6 bc ee bd 50 bc 26 69 d1 3d
       0.07317149 -0.020350711 -0.012740595 0.102251336
0001c0 25 fd 71 bc 45 b0 0e 3d b5 4a c9 3d 26 1a 9f 3d
       -0.014769827 0.034836072 0.09828702 0.07768659
0001d0 1e 43 a2 3d 6f 2c 19 bc 80 d3 61 3d 57 36 93 bd
       0.07922958 -0.009348973 0.055133343 -0.07188099
0001e0 65 13 93 3d fd 2f d6 3d e8 a8 03 bd 02 ef 62 3b
       0.071814336 0.10458372 -0.032143503 0.0034627323
0001f0 63 c1 42 3c 24 b5 82 bd 02 87 02 3e 41 a3 a7 3d
       0.011886927 -0.06382206 0.12746814 0.08185435
000200 14 fe 27 3d c6 ae c5 bd bb 27 ce bd 2b 50 8d bc
       0.041013792 -0.09652476 -0.10066172 -0.017250141
000210 92 b9 a3 bd 1e 39 a7 bd 47 40 24 3d 8f 0f 72 bd
       -0.07994379 -0.08165191 0.040100362 -0.05909687
000220 fd 2c ab bc d7 b2 c9 ba b0 e3 1a 3d 99 fb 8f 3d
       -0.020895476 -0.0015388381 0.037814796 0.0703041
000230 99 6a a5 3d d3 66 8a bd 2e 90 d1 bd ee df 74 bc
       0.080769725 -0.067578934 -0.10232578 -0.014945967
000240 18 0a 8b bd 40 e5 07 3d c5 1c 36 bd 0b 6c 87 3d
       -0.067890346 0.033177614 -0.04446103 0.066124044
000250 7e 8b 63 bc 19 4e 92 3d d5 06 8c 3d d0 05 eb 3c
       -0.013888238 0.07143802 0.068372406 0.028689295
000260 c0 46 99 3d 13 cf 80 bd 4f 98 87 bc 05 8a 90 bd
       0.074841976 -0.06289496 -0.016552119 -0.07057575
000270 95 b6 47 3c fe b1 63 bd 74 9b 48 bd 45 ba 9a bc
       0.012189527 -0.05558967 -0.048976377 -0.018887648
000280 70 c5 ab bc cc bd d6 bd d2 75 3a bd ac fd 8d bd
       -0.020968169 -0.1048542 -0.04552252 -0.0693315
000290 f7 09 74 bd be f4 25 3b b0 dc 53 3d f8 50 a7 3d
       -0.059579816 0.002532288 0.051724136 0.081697404
0002a0 1c 03 45 bc d1 cf 6a 3c ec d7 cb bb 59 5e 25 bc
       -0.012024667 0.014331774 -0.0062208083 -0.010093295
0002b0 61 7b 34 3c ff b8 88 3d 73 18 77 bd 14 b6 62 3d
       0.011015744 0.0667591 -0.06032605 0.055349424
0002c0 f6 2e 8b bd 8a d0 bc bd 5d ea 8a 3d 77 47 2d bd
       -0.067960665 -0.09219463 0.067829825 -0.042304482
0002d0 76 eb e1 bb 0a cf 80 3c 01 bd 4a 3d 74 94 09 3c
       -0.006894524 0.015723724 0.049496654 0.00839721
0002e0 25 cd f4 bb 04 6f a0 3c bf 07 8f bd 7c bc b2 bd
       -0.007470744 0.019584186 -0.06983899 -0.08727357
0002f0 8c fb 82 3d 9f 1e 4b bd 70 e2 aa 3b f3 27 2c 3c
       0.06395635 -0.04958975 0.0052149817 0.0105075715
000300 85 b1 3d bd 90 c6 51 3d 1a aa 5b 3d ca ca 43 bb
       -0.046311874 0.051214755 0.05362902 -0.002987551
000310 ea 43 56 bb fb 20 64 bd 4f 9f f2 bb a0 84 05 3d
       -0.0032694289 -0.055695515 -0.007404245 0.032597184
000320 d1 0e 1d bc 84 44 97 bc e2 38 19 3c f6 9c a6 3d
       -0.009586052 -0.018465288 0.009351941 0.08135407
000330 b6 ab 4c bc e6 34 5b 3d 7f 12 a2 ba 68 a7 5f bd
       -0.012492111 0.053517245 -0.0012365131 -0.05460301
000340 ce 46 5a bd ce 00 bd bd 6b 10 c2 bc 51 fe 5f bd
       -0.05329018 -0.09228669 -0.02368947 -0.054685894
000350 1d fa bf bb 52 16 fa 3a 2b 95 a2 3c 32 5e e4 bb
       -0.0058586732 0.0019080138 0.01984652 -0.006969237
000360 42 fc ae bd da f5 2a 3d 23 11 a2 3d 32 26 40 bd
       -0.08544208 0.04173837 0.07913425 -0.046911426
000370 6c 40 a1 3d 65 33 99 bd 36 ae e0 bc 53 c6 e8 3c
       0.078736156 -0.07480506 -0.02742682 0.02841488
000380 15 54 8a 3d c1 70 75 bd 66 f4 28 3d a8 50 6d 3d
       0.067543186 -0.059921984 0.0412487 0.057938248
000390 ef a6 53 bd 53 58 c1 bd d8 34 c1 bd 04 f8 67 bd
       -0.051672872 -0.09440675 -0.09433907 -0.05663301
0003a0 92 00 86 3d 67 32 d3 bd bd 25 7d bd 4c 9f bf bc
       0.065430775 -0.10312348 -0.06180357 -0.023391388
0003b0 8c af 07 3d db 54 9b bd 8f 47 85 3d af df 65 3d
       0.0331264 -0.07584544 0.06507789 0.056121524
0003c0 b1 c2 29 bd 07 05 0f bd b0 79 1c 3d 06 8f 3b 3d
       -0.041445438 -0.034916904 0.038201988 0.045790695
0003d0 1f dc 96 3c 43 94 86 3b 1d f3 9f 3c dc 1a cc 3c
       0.018415509 0.0041070296 0.019525105 0.024915151
0003e0 b4 76 8c bd ab a8 41 bd f2 d9 65 3d 25 e9 a5 bd
       -0.06858578 -0.047279995 0.056116052 -0.081011094
0003f0 ea 7a af 3d 81 36 3c 3d 4c 40 3b bd 08 3a f9 3c
       0.08568366 0.045950416 -0.045715615 0.03042318

state_encoder.encoder.6.bias f4 [128]
000000 b8 44 fb 3c fe c1 2c 3d 3b 41 7c 3d b0 f3 01 bd
       0.030672416 0.042177193 0.061585646 -0.03172654
000010 69 38 9e 3c fb 26 6d bd 48 b5 98 3c 48 2a f4 3c
       0.019314008 -0.057898503 0.01864113 0.029805318
000020 fb 20 c5 3d 9b 58 19 bd 40 54 1d 3d 85 c5 8b 3d
       0.09625431 -0.037438016 0.038410425 0.06824783
000030 6e e8 90 3d e8 1d 9c bc 9e b7 9c bd 7c 62 fc 3d
       0.070755824 -0.01905723 -0.0765221 0.12323472
000040 7f a1 14 bd d3 09 01 3e 1a 9d 60 3c 66 21 6f bb
       -0.036286827 0.12601404 0.013709331 -0.0036488413
000050 74 84 e6 3d 0a e8 e0 3d 38 2c 18 3e 5b e7 04 bd
       0.11255732 0.10981758 0.14860618 -0.0324472
000060 72 2b 17 3d 2a 59 56 3d e2 cc e3 3c 1a a6 c7 bc
       0.036906667 0.052331127 0.027807657 -0.024371196
000070 72 25 2f bc af 4d 13 3d 91 30 97 3d 07 1a 1b bc
       -0.01069008 0.035962757 0.0738231 -0.009466655
000080 6f 5d e7 bc 66 44 65 3d 7d 48 b8 bc 17 2c 05 3e
       -0.028242795 0.055973433 -0.022495503 0.130051
000090 69 07 ec bc d0 a7 9c 3d 08 1b 7e 3d 94 f4 cc 3d
       -0.028812127 0.07649195 0.062037498 0.10007587
0000a0 4f b7 33 3d 03 81 1a bc 96 48 07 3e 3b 66 35 bc
       0.04387599 -0.009430173 0.13211283 -0.011071737
0000b0 91 68 17 3d 9c 55 79 bd 25 61 7f 3d 3a 85 73 3d
       0.036964957 -0.06087266 0.062348504 0.059453227
0000c0 39 49 e4 3d 88 bc bd bc 2f 24 93 3d c3 33 d3 3d
       0.111467786 -0.023161188 0.07184636 0.10312607
0000d0 90 5c ed 3d b5 64 ce 3c 7b 03 18 3e 3c 0b e2 bb
       0.115899205 0.025194505 0.14845078 -0.006898312
0000e0 1f bc 86 bb f8 66 c4 3c 1a cb be 3d 16 a7 e7 3d
       -0.0041117813 0.02397488 0.09316082 0.11311166
0000f0 6d 46 ff 3b 09 ed a3 3d cb 53 ec 3d 31 9e c7 3d
       0.007790378 0.08004195 0.1153942 0.097469695
000100 85 1f 76 3d 95 09 20 3d c9 bc 44 3d 42 76 e6 3d
       0.060088653 0.039071638 0.048031602 0.11253025
000110 6d a6 7d 3d d7 fd 5c bc 8a f0 d8 3d 50 3f 71 bc
       0.061926294 -0.0134882545 0.10592754 -0.0147245675
000120 87 86 3e 3c c0 16 ad 39 6b f1 e6 3d 2f 03 16 3d
       0.0116287535 0.0003301408 0.112765156 0.03662413
000130 74 f5 94 bd d3 b6 0b 3d c3 4e a4 bc 57 9c 89 3d
       -0.07273379 0.0341099 -0.020057088 0.067192726
000140 5d cf 19 3e 34 f9 42 3d 11 f9 5c bc 03 57 10 3d
       0.15020509 0.04760094 -0.013487116 0.03523923
000150 80 27 06 3e 46 78 af 3d 25 43 87 3c cb 26 13 bd
       0.13101006 0.08567862 0.01651151 -0.035925668
000160 4f 75 1b bd 84 77 48 3d 29 73 ad 3d b3 df 68 3c
       -0.03795367 0.048942104 0.08469231 0.01421349
000170 20 e2 b1 bd 9d 59 c7 3d 9d 11 a0 3c a5 2e 07 3c
       -0.08685708 0.09733889 0.019539649 0.008250867
000180 19 1a b2 3d 28 73 6e 3d ce e4 11 3d d4 a0 be 3d
       0.08696384 0.05821529 0.035618596 0.09308019
000190 ea 37 85 3d 4c 94 f2 3c 87 45 97 bc a2 78 de 3c
       0.065048054 0.02961173 -0.01846577 0.027157132
0001a0 c6 8e b3 3d 27 75 69 3d 76 ae 20 bc 07 47 f6 3d
       0.08767466 0.05699649 -0.00980722 0.12025266
0001b0 d4 8c ce 3d de 93 59 3b a6 4d a1 3d 73 52 54 3a
       0.100854546 0.0033199708 0.078761384 0.0008099444
0001c0 88 32 5c 3b 34 f9 a6 3c 41 21 99 3c f2 51 a8 3d
       0.0033599455 0.020382501 0.018692615 0.08218755
0001d0 9c 64 c8 3d e9 02 89 3d 06 a2 b0 bb a7 96 a2 bc
       0.09784815 0.06690008 -0.0053904084 -0.019847227
0001e0 69 f6 cd 3d 42 98 ec bc 65 34 0e 3e a2 fe 21 3d
       0.10056765 -0.028881196 0.13887174 0.039549477
0001f0 57 b1 f7 3d 7b 29 1e 3d 46 a6 71 bd a1 d1 7f 3d
       0.12094372 0.038613778 -0.05899646 0.062455777

action_scorer.scorer.0.weight f4 [64, 133]
000000 46 b9 a2 bd 34 75 4e 3d cf 2f 1f 3c 57 18 74 3d
       -0.07945494 0.050404742 0.009715988 0.059593525
000010 f3 d2 38 bd c5 85 0b bd 85 8e e1 3c 14 e3 2e 3d
       -0.04512305 -0.03406312 0.027533779 0.042697027
000020 34 3b ba bd 5b ad 80 3d 5d c1 8a bd 54 39 9d 3c
       -0.09093323 0.06283065 -0.06775162 0.019192375
000030 6a 01 b1 bc c9 b2 e9 ba 55 6f 16 3c 03 e2 81 3d
       -0.02160712 -0.0017829771 0.009181817 0.063419364
000040 74 be b5 bd e8 ef 27 3d b8 02 41 3d 8b 6d 26 3d
       -0.08874217 0.041000277 0.047121733 0.040631812
000050 ec b2 dd bc 1c 36 43 bc 0c a1 ae bd 2a 29 b0 3b
       -0.027062856 -0.011914756 -0.08526811 0.005376001
000060 69 d8 d6 bc db b4 17 bd f2 d2 9a 3d 4e 3c 7b 3d
       -0.02622624 -0.03703771 0.07559766 0.061336808
000070 c3 a4 71 3d 9f 85 32 bc 88 5f b1 bd ad b9 dd bc
       0.05899502 -0.010896116 -0.08660799 -0.027066076
000080 8f 51 10 3d db 6f c0 3c 3a e0 38 b9 eb ca a5 bc
       0.03523403 0.023490837 -0.00017631138 -0.02023836
000090 a9 f1 29 3d df 88 04 bd b7 97 66 3d 9e 19 bc 3c
       0.04149023 -0.032357093 0.05629703 0.022961434
0000a0 b0 58 c8 bd 3c 7d 3c bd bc d1 7e 3c 56 ec 82 3d
       -0.09782541 -0.04601787 0.015552934 0.06392734
0000b0 5e 4b bc 3c f6 f7 7c 3c 47 b5 c7 bd 23 b8 a0 bd
       0.022985157 0.015439978 -0.09751373 -0.07847621
0000c0 a4 22 8d 3d c4 d0 8a bd 7e 6d 2a 3d 69 b4 c5 bd
       0.06891373 -0.067781 0.041608326 -0.09653551
0000d0 2e 46 2b 3d c2 8f c4 3b ff 5c b8 bd 45 f7 64 bd
       0.041814975 0.0059985826 -0.090021126 -0.055899877
0000e0 23 e2 2a bd 1c e4 71 3d da f8 28 bd 13 26 9f bd
       -0.041719567 0.059055433 -0.04125295 -0.07770934
0000f0 fe 75 44 3d 09 39 37 bc 9b 5d 48 3d 8e 26 94 bd
       0.04796409 -0.011183032 0.048917394 -0.07233916
000100 91 79 51 bd 57 cb 01 3b 94 0e 76 bd 64 45 02 3d
       -0.051141325 0.0019805038 -0.060072497 0.031804457
000110 2b 53 6d 3d 05 fb 03 3d cf ec 3d bd 30 20 23 bd
       0.057940643 0.032221813 -0.046368416 -0.03982562
000120 0e 4f 01 3c 82 c0 17 bc 2b 10 8d 3d 21 43 6e bd
       0.007892383 -0.009262206 0.068878494 -0.058169488
000130 a3 9f 99 3d 0d 65 55 3d aa aa 66 3d 36 b8 5b 3d
       0.075011514 0.052098323 0.0563151 0.053642474
000140 0f 10 c8 bc 18 a3 a3 3b c6 b5 81 bd 43 48 c1 bd
       -0.02442172 0.0049938075 -0.06333499 -0.09437611
000150 c5 50 ec bc b0 93 45 3d ef 39 74 bc c3 23 89 bd
       -0.028847108 0.04823655 -0.014906391 -0.06696274
000160 78 0a 6f bc 89 1a 83 3d bc ea 5f 3d d4 d8 b9 bd
       -0.014589898 0.064015456 0.05466722 -0.0907456
000170 09 65 0a bd 29 e2 b4 bd 7f d8 02 bc c2 fa c3 bd
       -0.03378776 -0.08832199 -0.007986187 -0.09569313
000180 0a c6 48 3d 91 b0 d7 3c 8e 55 e4 3c a4 5d f2 bc
       0.04901699 0.02632931 0.027872827 -0.029585667
000190 16 79 8e bd cc 4a 05 bd a0 e6 c3 3c 58 f5 82 3d
       -0.06956689 -0.032542035 0.023913682 0.06394452
0001a0 f2 b7 5b bd a1 a1 91 bd 93 2e 8f 3d f6 76 93 bd
       -0.05364222 -0.071109064 0.06991305 -0.072004244
0001b0 ea 01 88 bd 76 c7 18 bd bb 3a a0 bd 81 cf 8e 3d
       -0.0664099 -0.037299596 -0.07823702 0.06973172
0001c0 f8 6c fd 39 1e ff 50 3c f7 f4 82 3b af 34 32 bd
       0.00048337108 0.012756137 0.0039964872 -0.043507274
0001d0 7d ee e7 3b 55 5d 7a 3d ec 06 97 3d 26 06 b1 bd
       0.0070779906 0.061124165 0.07374367 -0.08643751
0001e0 a7 8b eb 3c 7e 0a 6f bd 9f ec 9e bb b4 f0 e0 bc
       0.028753115 -0.058359616 -0.004849985 -0.027458526
0001f0 a1 fe e1 3b 46 d1 c1 3c fc e3 ab bc cf 24 ae bd
       0.006896809 0.02365936 -0.020982735 -0.085031144
000200 5f 6d 22 bc a3 e3 25 3d 0f 6d 53 3d 0f 95 88 3d
       -0.009913771 0.040500294 0.05161768 0.06669056
000210 53 29 af bd fd c4 c2 3b de d6 cb 3c 5a 8d 29 3d
       -0.08552804 0.005943893 0.02488273 0.04139457
000220 fa 70 20 3d 35 8f 9f bd 15 4b d1 bc 84 1b ca 3c
       0.039170243 -0.077909864 -0.025548497 0.024671324
000230 9f 28 4e 3d e9 20 4c 3d 43 9a 98 bd e2 b5 62 3d
       0.050331708 0.049836073 -0.07451298 0.05534924
000240 1b b6 8b bb 3f f4 06 3d 00 e1 a1 b9 9d 59 bd bc
       -0.004263652 0.032947775 -0.0003087595 -0.02311402
000250 d6 07 c4 bc d4 fd c5 bd 90 1f cb bc 34 52 8b 3d
       -0.023929518 -0.096675545 -0.024795324 0.068027884
000260 4e 68 07 3d 5a 23 ad 3d 4f 6f 55 bd b8 58 28 bd
       0.033058457 0.084540084 -0.052108105 -0.041100234
000270 34 c0 c5 bb ea 01 9b bd db f4 af bd 28 0d 96 3d
       -0.0060348753 -0.075687245 -0.08591624 0.07326728
000280 21 e3 92 3d ff 97 b4 bc 6c 17 89 bd 7a 78 88 bd
       0.07172228 -0.022045134 -0.066939205 -0.06663604
000290 61 07 c5 bc b0 62 92 bc 4d 90 99 3d 25 e9 d3 3c
       -0.02405137 -0.017869323 0.07498226 0.025868008
0002a0 96 31 85 bd 4b 95 6b bb 08 ab 87 bd 80 5f de bc
       -0.065035984 -0.003594714 -0.066244185 -0.027145147
0002b0 07 c8 8d bd 68 4a 97 bd 00 68 dd 3b 43 34 2b 3c
       -0.06922918 -0.07387239 0.0067567825 0.010449472
0002c0 7d 3b 0c 3d b4 b8 66 3d c7 17 94 3d b4 d0 85 3c
       0.03423642 0.05632849 0.07231098 0.016334869
0002d0 a8 07 a5 bd 2b d7 69 bd 9a e9 c9 ba bb a4 6a bd
       -0.08058101 -0.057089966 -0.0015404702 -0.057286005
0002e0 bc fa 86 bc 66 2e 68 3d 36 1a 83 bd ea 4e 68 3d
       -0.016476981 0.056684874 -0.06401484 0.056715883
0002f0 aa 9d 10 bd 42 1f 86 bc 48 aa a4 3d 97 7c a5 bd
       -0.03530661 -0.016372327 0.08040291 -0.08080404
000300 85 6c 0d 3d 9e 81 42 bd 9c f4 6d bd 68 c2 c2 bd
       0.03452732 -0.047486894 -0.058094606 -0.09509736
000310 4f 01 7a 3d e3 b6 e6 3c 87 85 30 bd 02 23 53 3d
       0.061036404 0.028163379 -0.04309609 0.051547058
000320 ad 58 28 3d 64 11 58 3b 3b 1c 3c bd bd 9f 2d bb
       0.041100193 0.003296935 -0.04592536 -0.0026492917
000330 a2 a4 8f bd b9 80 2b bd a3 fb 22 3d 58 32 04 3d
       -0.07013823 -0.041870806 0.03979076 0.032274574
000340 27 5c 80 3c 4b 8b 78 bd 35 a5 86 bd dd 3a 3e bc
       0.015668942 -0.060679715 -0.065744795 -0.011610714
000350 c1 72 b7 3c be 94 b9 bd 13 ea 80 bd 4f 5b a2 3c
       0.022393586 -0.090615734 -0.06294646 0.01981893
000360 96 c9 82 bd 20 ba af bd 32 69 7c bd f5 b3 90 bd
       -0.06386106 -0.085804224 -0.06162376 -0.07065574
000370 cf 9a a3 bd 73 94 b8 bd fd 58 2a 3d ed 8b 97 bb
       -0.07988512 -0.090126894 0.041588772 -0.0046248347
000380 89 7e 8c 3d f6 6f 94 3c 3e e1 3a bd 48 0b e9 3c
       0.06860072 0.018119793 -0.045624964 0.028447762
000390 b6 c1 92 3d 79 fd 33 3d b0 d4 ab ba 48 d1 81 bb
       0.07165854 0.043942902 -0.001310965 -0.003961716
0003a0 79 4f 18 bd 6a 8c 8a bd 89 a4 11 3d cf e7 b5 3d
       -0.037185166 -0.06765063 0.035557304 0.088821046
0003b0 cd c7 17 3d f0 1c 5b bd 06 33 08 bc 42 92 0c 3d
       0.03705578 -0.053494394 -0.008312946 0.03431917
0003c0 ab 83 84 bd 9b 03 64 bd 9c 1c 6a bd ef f5 07 3d
       -0.06470426 -0.0556675 -0.05715619 0.033193525
0003d0 8e 87 e4 3c 0a cb 9d bd 0a 56 25 bc 83 a2 13 3b
       0.027896669 -0.07704742 -0.010091314 0.0022527284
0003e0 8e a5 23 bd c5 5f 31 bd a5 c1 3b 3d ee b1 5d 3d
       -0.039952807 -0.043304224 0.04583897 0.054124765
0003f0 a0 21 05 3d f0 62 9d 3d c9 da 8b bd 22 d7 17 3d
       0.03250277 0.076848865 -0.06828839 0.0370704

action_scorer.scorer.0.bias f4 [64]
000000 af 3b 2c bc a2 49 a0 bd df 59 c4 3d 0f 29 69 3d
       -0.010512277 -0.07826544 0.09587454 0.056923922
000010 13 02 08 bd 6d d2 a6 bc c1 03 8b 3d 35 82 5e bc
       -0.033205103 -0.02036401 0.067878254 -0.013580848
000020 97 e1 11 3e bf 6d 8f 3d 4b 6d f1 3d ce d0 88 3c
       0.14246212 0.07003354 0.11788424 0.016701128
000030 20 95 d8 bc f1 ef 5a 3d 56 d0 ea 3d ce 16 8b 3d
       -0.026438296 0.053451482 0.11465518 0.06791459
000040 ea bb fe bc 18 89 b4 3c b2 54 e7 bc 94 d2 db 3c
       -0.031095464 0.022038028 -0.028238628 0.02683381
000050 d4 74 64 3c 4a 19 df 3d 48 0e da 3d 4f fa c4 3d
       0.01394387 0.108934954 0.10647255 0.09618055
000060 e9 d7 23 bd a9 16 07 bc 6c 4f 31 bc 9e 54 12 bd
       -0.04000083 -0.008245149 -0.010822158 -0.03572523
000070 1a fb 81 3d fa 27 39 3c b4 54 02 3e f4 8b e8 3b
       0.06346722 0.011301035 0.12727624 0.007096762
000080 79 b8 0b 3e 6a db cf 3d 07 f0 f3 ba f2 1c 32 3d
       0.1364459 0.10149272 -0.0018610962 0.043484636
000090 a1 5d 70 3d 70 80 b8 3d 3d ab e0 bc 4e db 2b bc
       0.05868304 0.090088725 -0.027425403 -0.010489298
0000a0 37 7a c4 3b 85 c7 4c bd 09 cc 9f bd 8f 7f 45 bc
       0.0059960145 -0.049994964 -0.078025885 -0.012054338
0000b0 24 5c e7 3c 0d 6b 5e 3c f5 2a e3 3c 19 aa 87 3d
       0.028242178 0.013575328 0.027730444 0.066242404
0000c0 7c 25 3b bd dc 4a 68 3d ee e0 17 bc 00 21 cc 3d
       -0.045690045 0.056712016 -0.009269936 0.09967232
0000d0 3b db 3e bd 7e 78 0c 3e 6b c4 e6 3c 63 bd b0 3c
       -0.046595793 0.13717839 0.028169831 0.021574682
0000e0 12 9a a8 bb c8 71 f6 3d 93 96 a0 3d 26 f8 f7 3c
       -0.0051453197 0.12033421 0.0784122 0.030269694
0000f0 0f 75 8d 3d 08 fa 4f bd 2b 4d 12 bd f1 c4 53 bc
       0.06907093 -0.050775558 -0.035718124 -0.012925372

action_scorer.scorer.3.weight f4 [32, 64]
000000 7e ed a0 bd 33 a8 3e 3d ce 64 9e 3d e9 20 df bd
       -0.07857798 0.046547126 0.07734071 -0.10894949
000010 52 28 93 bd 57 20 92 3d 04 12 a8 bc 3b 4b e6 3d
       -0.07185425 0.071350746 -0.020516403 0.11244818
000020 50 c7 db 3c 7a d6 d1 3d 2b 3e 98 3d 55 b7 c8 3d
       0.026828438 0.10245986 0.074337326 0.09800593
000030 d9 e9 f0 3d a8 36 db 3d 9a 94 8c 3d 60 12 03 3d
       0.11763353 0.10703784 0.06864281 0.031999946
000040 b9 34 ca 3c 7d 00 15 3c 64 1c 43 bd 25 28 7e bd
       0.024683343 0.009094355 -0.047634497 -0.062050004
000050 4c 82 44 bd f3 4c 7c 3d ac 52 95 bc 5b 5a 0c bd
       -0.047975823 0.061596822 -0.018227898 -0.034265857
000060 bb 4e e3 bd ed 4c 3a bd 79 48 ea 3d 24 d0 5a bd
       -0.11099001 -0.04548352 0.11439604 -0.053421155
000070 02 ec 2f bd e9 78 eb 3c 6f 10 eb 3d b5 0a 8d 3d
       -0.042949684 0.028744178 0.11477744 0.06886808
000080 72 76 5e 3d d2 ac 73 bd 60 f9 04 3e 3d 9d db bd
       0.054312177 -0.059490986 0.12985754 -0.1072335
000090 a7 bc 8c bd e6 4b 8d 3c 4d 76 b0 bd b4 10 de 3c
       -0.0687192 0.017248105 -0.08616314 0.027107574
0000a0 c5 28 d2 3d b4 5a e3 3c 49 be 92 bd 01 6f 9c bb
       0.102616824 0.027753212 -0.071652 -0.004773975
0000b0 d8 b6 ed 3d 3a 1b 02 3e a3 2e 19 3e bf bc a7 3d
       0.1160714 0.12705699 0.14959197 0.08190297
0000c0 a8 41 82 3c 36 c2 99 3d 55 c9 0a bd 05 4d 8d 3c
       0.015900448 0.07507746 -0.03388341 0.01724864
0000d0 7e 3e d9 bd c3 da 9a bd a2 f2 71 bd ea 55 db 3d
       -0.106076226 -0.07561257 -0.059069283 0.10709746
0000e0 25 15 02 3e 3e ce 11 3e c3 08 0a bc d5 bc 21 3e
       0.12703378 0.14238831 -0.0084249405 0.1579469
0000f0 25 88 68 3d 50 2b 44 3d 09 ec 95 bc b3 a3 e0 3c
       0.056770463 0.04789287 -0.018301027 0.027421808
000100 fa ae 18 3d 2a b4 a8 3d 3c b3 2f bd 12 23 cb 3d
       0.037276246 0.082374886 -0.04289554 0.099187985
000110 1e b9 d1 bd ad e2 df 3c 77 5b 7c 3d 64 8b 9d bd
       -0.102403864 0.027329767 0.061610665 -0.07692602
000120 a2 41 d8 bd 06 a8 dc bd a9 2f 26 3d e8 52 aa bd
       -0.105593935 -0.107742354 0.040572796 -0.08316594
000130 4b 77 c7 bd 89 bb 95 bb da f4 e5 bd 84 f9 a6 3d
       -0.0973955 -0.004569475 -0.11228342 0.0815306
000140 60 84 0c 3c 63 82 da bd 2b 27 3b 3c c0 35 55 3d
       0.008576483 -0.106694005 0.011422913 0.052053213
000150 b2 8f 7c bd ae 1d 95 3c 45 d8 b8 3d ed 99 59 bb
       -0.061660476 0.018202629 0.09025625 -0.003320332
000160 23 d9 e3 bd fa fa 2d 3b d0 d1 10 bc d4 42 fa bd
       -0.111254 0.0026547299 -0.008839086 -0.12219778
000170 2d 02 d6 bc 74 f2 a3 bd 50 39 cf bd e7 b1 da bd
       -0.026124084 -0.08005229 -0.10118353 -0.106784634
000180 c1 00 46 bb 94 4e c0 3d de 73 80 bd 45 ed 89 bd
       -0.0030212852 0.093899876 -0.062721 -0.06734709
000190 58 31 39 bb 76 9f 1f bc c9 14 c6 3d 4e 38 9a bd
       -0.002825817 -0.009742608 0.09671933 -0.075302705
0001a0 f0 61 eb bd d0 66 75 3d 36 c6 aa 3d 22 c8 db bc
       -0.114932895 0.059912503 0.08338587 -0.02682883
0001b0 b4 0b 25 3d 88 bd 95 bd 44 93 e2 3c a8 b4 4b bd
       0.040294364 -0.07311541 0.027658112 -0.049732834
0001c0 8c 3f b5 bd a9 8f 6b 3d 05 ba 58 3d 90 3c bc 3c
       -0.08850011 0.057510052 0.052911777 0.022978097
0001d0 00 d8 a9 3b 04 64 be 3d 4c 56 b8 3d a4 42 d5 bd
       0.00518322 0.0929642 0.09000835 -0.10413101
0001e0 f3 b2 c2 bd ee d0 f8 3d 08 a1 b7 3d 58 9b e1 bd
       -0.09506788 0.12149225 0.08966261 -0.110159576
0001f0 a0 64 8f 3c 80 dc 0f bc d5 cd ba bc e1 f4 6c 3d
       0.017504036 -0.008780599 -0.022803226 0.057850722
000200 0e a4 b2 bd 20 ed 7a 3d 58 2e f6 bd 40 15 85 3b
       -0.08722697 0.061261296 -0.12020558 0.004061371
000210 50 91 70 bd f0 60 f7 3d 2a 83 d0 bd de 23 98 bd
       -0.05873233 0.12079036 -0.101812676 -0.07428716
000220 2a 7a bf bd a6 f5 e1 bd e0 ad 96 bb 1e 47 f8 3d
       -0.09349473 -0.11033182 -0.0045983642 0.121229395
000230 5c 0a 58 bd 48 97 23 bd 78 4c a8 bd e0 b1 8c 3d
       -0.052744254 -0.039939195 -0.0821771 0.068698645
000240 10 4e 7f 3d 54 cc c1 bd 00 4e 8b ba 40 a6 9c 3d
       0.062330306 -0.094628006 -0.0010628104 0.07648897
000250 22 24 a0 bd 2c e2 48 bd 9c f0 19 bd 66 6a cc bd
       -0.07819392 -0.04904382 -0.03758298 -0.099812314
000260 a8 d1 87 3d be 5a d7 bd 52 45 a3 3d 0e 8c 90 bd
       0.06631786 -0.105153546 0.07972206 -0.07057963
000270 9a f2 81 3d 12 ad 8c bd a2 4b ba bd 00 73 48 3b
       0.06345101 -0.06868948 -0.09096457 0.0030586123
000280 90 46 ce bc 92 d3 ec 3d a4 e1 04 3d 02 0b ba 3d
       -0.025180131 0.11563791 0.03244175 0.09084131
000290 40 48 e4 bd 7a 19 8c 3d 10 2a 9d bc 18 3f d9 3c
       -0.11146593 0.06840797 -0.019185096 0.026519343
0002a0 b2 10 85 3d a6 e8 ae 3d e8 38 67 bd 02 3d 90 bd
       0.06497325 0.08540468 -0.056450754 -0.07042886
0002b0 04 bb 92 3d 90 b2 f1 3c ca 30 8c 3d f8 a1 78 bd
       0.07164577 0.02950409 0.06845243 -0.06070134
0002c0 30 62 ee 3c 44 e4 81 bd 22 21 9c 3d c0 e4 d2 bc
       0.029099554 -0.06342366 0.07623507 -0.025743842
0002d0 3c 6f dc bd de 34 ec bd 2e 16 e7 bd 7c 3d 95 3d
       -0.10763404 -0.11533521 -0.11283527 0.07287118
0002e0 44 17 a9 3d 6c 3c ec 3d 10 0c b8 bc 80 d2 45 bb
       0.08256391 0.11534962 -0.02246669 -0.0030185282
0002f0 14 57 bd bd 5c cc f2 bd d8 53 c2 bd d4 f5 da bd
       -0.092451245 -0.11855385 -0.09488648 -0.10691419
000300 c2 72 0a 3e 6f b6 41 bd 28 9d 6e bd a1 c4 8a bd
       0.13520339 -0.047293123 -0.058255345 -0.06775785
000310 ac e1 d6 3d 18 72 ee 3c 3e 8d 35 bd 8b c8 01 bd
       0.10492262 0.029107139 -0.044324152 -0.031685393
000320 83 5d 46 3b da e0 e2 3d 51 6d 18 3d 69 75 ba bd
       0.003026814 0.11078043 0.037213627 -0.091044255
000330 37 86 30 bd ec 7f ce 3d c1 4f 34 bd 32 d3 81 3d
       -0.043096747 0.10082993 -0.04402137 0.063391104
000340 28 d8 88 3d 63 75 ad 3d 6e 23 d3 3d 9f 6b 92 bd
       0.066818535 0.08469655 0.10309492 -0.07149433
000350 92 fb 0c 3e 48 74 da 3d d4 05 fe bc 4a cd aa 3d
       0.13767841 0.1066671 -0.031008638 0.08339937
000360 d7 3c f3 3d 47 6e b4 bd 30 45 6d 3d ec 5d c2 3c
       0.11876839 -0.08810096 0.05792731 0.023726426
000370 75 f5 08 bc 23 c5 b5 bd 49 ec d4 3d 72 fb 5b bc
       -0.008359303 -0.088754915 0.1039663 -0.013426648
000380 27 b2 5a 3d 4f d6 09 3c 61 20 a7 3c 4a 95 c5 3d
       0.053392556 0.008412912 0.020401182 0.09647615
000390 40 77 da 3d 56 8e 38 3d d0 a9 1e 3e ee 92 89 bc
       0.106672764 0.045057617 0.15494466 -0.016793694
0003a0 57 4c 9a bc bd ed 99 3c 18 36 ba bd fa 35 ab bd
       -0.01883523 0.01879012 -0.09092349 -0.083599046
0003b0 6d d4 92 bc c8 67 a7 3d b0 05 0f 3e 8e 2b 9c 3d
       -0.017923558 0.081740916 0.13967013 0.07625495
0003c0 09 ff 18 bd fa 59 86 3d 70 2e b3 bc a9 77 ad bd
       -0.037352595 0.065601304 -0.021872729 -0.08470089
0003d0 b2 f6 3b bd 1c f7 8c 3d bf 1e 2c bc 94 41 1a bd
       -0.045889564 0.0688307 -0.010505377 -0.037660196
0003e0 27 35 63 bd 7d 24 7a 3d b3 7a 2b bd dd 78 b0 3d
       -0.055470612 0.061069954 -0.041865062 0.08616803
0003f0 02 6b 4d bd 51 7c c0 3d 98 11 93 3d 11 78 ca 3c
       -0.05015088 0.093987115 0.0718109 0.024715455

action_scorer.scorer.3.bias f4 [32]
000000 5f 92 30 3e e6 e0 a2 bd 20 6d 2a bc 88 62 3e 3d
       0.17243336 -0.07953052 -0.010401994 0.046480685
000010 21 52 66 bd a4 4b 0d bc 0c d7 04 bd 40 db c2 3d
       -0.056230668 -0.008623991 -0.032431647 0.09514475
000020 e4 9b b9 3d fe 9e 3b bd 74 fb 2d 3e 22 23 d9 bd
       0.09062937 -0.045805924 0.16990453 -0.10602404
000030 f3 46 58 bd 7f a2 96 bd e5 14 d9 3d fa 55 f9 3d
       -0.052802037 -0.073552124 0.105996884 0.12174602
000040 2a 43 9b bc c8 df 41 3d 2b 50 83 3b 9c de 20 3e
       -0.018952925 0.047332555 0.0040073595 0.15709919
000050 bc 44 0b 3e e6 ad 9a 3d 16 9e 08 3d a4 36 d2 3d
       0.13600439 0.075527 0.033353887 0.10264328
000060 a6 8d 40 3d 06 ee 06 3d 50 0c c0 bb 78 14 af 3d
       0.047010086 0.03294184 -0.0058608428 0.08548826
000070 6d 51 8a 3d 2c 24 d7 3d ab 30 7d 3d f8 fb 0c bd
       0.06753812 0.10504946 0.06181399 -0.034419984

action_scorer.scorer.5.weight f4 [1, 32]
000000 80 8c 3e 3e 7b 62 23 be d6 7b ea 3d 6c 37 aa 3d
       0.18608284 -0.15955536 0.11449401 0.08311352
000010 c1 96 96 3d e0 93 dd bd 35 95 8e bd 19 0b c4 3d
       0.07352973 -0.108192205 -0.06962053 0.09572429
000020 6c 7e 91 3d f0 a9 9c bd 15 d0 2c 3d 5f 97 f4 bb
       0.07104191 -0.076496005 0.04219063 -0.007464334
000030 5d 02 1a 3e 0c 24 1a 3e 10 2e 26 3e 17 6c 30 3e
       0.15039964 0.15052813 0.16228509 0.17228733
000040 f9 a0 23 3e c6 5e 37 3b 05 30 90 3d d0 b8 53 3e
       0.15979375 0.0027980073 0.07040409 0.20675969
000050 62 b7 a5 3d 81 8c 0f 3d 1e dc b8 3d c6 f3 c2 3d
       0.08091618 0.035046104 0.09026359 0.09519152
000060 41 a1 f9 3d f8 7a de bd b9 56 b6 3c 09 eb ae bd
       0.1218896 -0.10863298 0.02225815 -0.08540923
000070 4d 59 d4 3d ea b7 3d 3e 8c ae e4 3d 53 6f 0c 3d
       0.10368595 0.18527189 0.11166105 0.034285855
